train_pipeline/models/mlp/mlp.pt (torch, 7589 bytes, 5 tensors)

layers.0.weight f4 [32, 20]
000000 65 5e 97 3e 5c 60 8f 3d 16 8f b4 bd 5d 01 b6 bd
       0.29564205 0.07000801 -0.08816354 -0.08886979
000010 d4 55 b8 bd cc e7 67 bd c7 52 2b 3e 5a 57 25 3c
       -0.090007454 -0.056617543 0.16730796 0.010091627
000020 48 59 f2 bd 62 a2 8f 3d fe 52 cf 3d cb 38 dd bd
       -0.11833435 0.07013394 0.101232514 -0.10801848
000030 b4 67 11 39 62 d1 83 3e da 24 4c bd 5d 82 b3 bc
       0.0001386691 0.25745684 -0.049839832 -0.021912748
000040 51 6f f0 bd 00 6c 53 3d e6 32 eb bd b4 dc 82 bc
       -0.11739982 0.05161667 -0.114843175 -0.01597438
000050 f2 9c e0 3d e8 9e 87 be c3 cd 2e 3e 32 93 5d bc
       0.10967435 -0.26488423 0.1707068 -0.013523864
000060 e7 45 e8 3b f4 c9 6c be cf c3 b9 bd de 9e ce 3b
       0.007088411 -0.23123914 -0.09070551 0.0063055595
000070 b0 76 30 bb 5e e2 9e 3e 20 9d 07 be 1c c2 6f 39
       -0.0026926212 0.3103208 -0.13243532 0.00022865128
000080 90 19 40 3e 86 fd 17 bd 00 2c 65 3e 86 91 f8 3d
       0.18759751 -0.037107013 0.22380066 0.121371314
000090 21 8e b7 39 8c 18 30 bd f2 1d ce bc 70 66 8f be
       0.00035010374 -0.04299216 -0.025160763 -0.2800784
0000a0 4e 22 bc 3d 36 02 2a 3e 1d 76 36 bc 2a e5 6c 3d
       0.091862306 0.16602406 -0.011136559 0.057835735
0000b0 b0 ad da bd 08 34 63 3e b4 90 bb 3d 01 1b 6b be
       -0.106776595 0.22187817 0.09158459 -0.2295952
0000c0 a5 ae 5e be 40 24 7d 3d de de 14 be f1 11 e3 3d
       -0.21746309 0.06180215 -0.14538142 0.110874064
0000d0 e1 a7 34 be e4 ae 34 3e 90 5b 32 3d 78 75 3a be
       -0.17642166 0.1764484 0.043544352 -0.18208873
0000e0 2f 5b 11 be 29 20 70 3e ad 4d 3b 3e 9b 59 63 3d
       -0.1419494 0.23449768 0.1829135 0.055505376
0000f0 28 d0 d3 3e 4e 46 1e be fe 18 18 3e ac bd 4a be
       0.41369748 -0.15456507 0.14853284 -0.19798917
000100 5e 0a a2 be 01 84 da bd 2e 22 8b 3d a8 44 4f 3e
       -0.31648535 -0.10669709 0.06793629 0.20241034
000110 66 85 99 bd e0 cf 67 be b1 f8 9f 3d 80 d2 c3 3d
       -0.07496147 -0.22637892 0.07811106 0.09561634
000120 f1 c2 2d bb 04 41 a8 bd 4a 40 bb 3c 28 69 ad 3d
       -0.00265139 -0.08215526 0.022857804 0.084673226
000130 d8 67 f1 3c 0c f4 bb be ad af 3d 3e ac d5 e6 3d
       0.029468462 -0.3670963 0.18524046 0.112712234
000140 2b fd 4b be be 7e 52 3e 90 4e 29 3e 1a 40 62 bd
       -0.19920795 0.20556161 0.16533875 -0.055236913
000150 b4 b6 74 be 4e a5 e6 bd 5e 1a c8 3e 65 40 7b 3d
       -0.2389782 -0.11261998 0.39082617 0.06134071
000160 e1 8c 23 3e f6 1c 27 3e e9 b1 19 3e 58 68 8d 3e
       0.1597171 0.16319641 0.15009274 0.2761867
000170 68 70 12 3e eb 84 98 3d ca e9 e9 3d 40 86 33 be
       0.14300692 0.07447227 0.11421545 -0.17531681
000180 47 ad 4a 3d fa a5 58 be b5 1f c9 3b 17 98 04 3e
       0.049481656 -0.21157065 0.006137813 0.12948643
000190 0e 1f ba 3d 00 48 ac 3d 70 43 b5 bc 6c 06 20 3d
       0.090879545 0.084121704 -0.022126883 0.039068624
0001a0 09 c7 20 be 9e 76 9a 3e 57 76 8e bd a5 6b a7 be
       -0.15700926 0.30168623 -0.06956165 -0.32699314
0001b0 5e da 37 3e d2 6c 0d be 2f a5 31 3e 4e df 9b bd
       0.17954394 -0.13811043 0.17348169 -0.07610951
0001c0 f3 a4 21 be d9 60 32 be d7 22 01 bd ac 7a ae be
       -0.1578558 -0.17419757 -0.031527366 -0.34077966
0001d0 92 d0 5d 3d 3b 6d b8 bc 61 61 87 3e 3b 35 1b 3e
       0.054153986 -0.022513023 0.26441482 0.15157025
0001e0 10 83 52 3e 4a f4 d1 bc 89 b1 19 be 60 20 28 bd
       0.20557809 -0.025629181 -0.1500913 -0.0410465
0001f0 16 2a 91 3e 04 33 07 3e 46 b2 06 be 73 71 2d be
       0.28352422 0.13203055 -0.13153943 -0.16937809
000200 ba 1f 9f bd 6f c9 db 3d c4 e1 4d bd ad c8 c8 bd
       -0.07769723 0.1073178 -0.050264135 -0.09803901
000210 94 9b 0d 3c 8d 63 12 bd 88 dd b0 3c 0a 80 0d 3e
       0.00864305 -0.03573947 0.02159001 0.13818374
000220 80 cd c1 bd fb 8d bb bd d4 1a 04 3e 2d 9d 16 be
       -0.09463024 -0.0915794 0.12900859 -0.14708395
000230 52 c2 fb 3c 5d c5 8c 3d 7f 8f 19 3c 1c b7 5a 3e
       0.030732308 0.068735816 0.009372591 0.21358913
000240 e3 ab ce bc 1b 3b 42 3e 6d 18 58 3e 54 8e 8e 3d
       -0.025228446 0.1896786 0.21103068 0.06960741
000250 3e de 24 3e d3 f5 7d 3d 72 48 2b 3c 38 08 4e bd
       0.16100404 0.062002014 0.010454284 -0.050300807
000260 1f 5e e6 bd 4b 93 82 3d c2 20 32 3d 28 ff 0f 3e
       -0.11248421 0.0637575 0.04348827 0.14062178
000270 a2 c6 5c be 90 1e 24 be 5e ce 88 bc fd 81 83 3e
       -0.21560147 -0.16027284 -0.016699966 0.2568511
000280 36 55 a0 3e bd 7f 1b 3e 72 cc cc 3d 7a ff 80 bd
       0.3131501 0.15185447 0.09999932 -0.06298728
000290 bd af 1c be db 6b d2 bd 6f 0d ff 3c 51 ab 94 be
       -0.15301414 -0.10274478 0.031134335 -0.29036954
0002a0 10 15 64 3e 68 ca 98 be ee 07 93 3d 30 67 a1 3d
       0.2227366 -0.29841924 0.07179247 0.078810096
0002b0 d0 32 21 3e dc 5d 2d 39 42 56 9e 3c 00 c7 1b be
       0.1574204 0.00016533531 0.01932824 -0.15212631
0002c0 01 79 03 be 11 9f 81 be 0c da 71 bd 8c 56 2a 3e
       -0.12839128 -0.2531667 -0.059045836 0.16634578
0002d0 5d 92 05 be b3 1d 97 be 10 db 12 be 19 d9 0c 3e
       -0.13044114 -0.29514846 -0.14341378 0.13754691
0002e0 40 c3 1a be 89 6f ec 3d b4 32 1e 3d 06 b1 61 bd
       -0.15113544 0.11544711 0.038622573 -0.055100463
0002f0 d2 1d 06 3e c8 e2 2e be 21 2f 46 3d 06 6f 7a bd
       0.13097313 -0.17078698 0.04838479 -0.061141036
000300 1f 8d 80 bd 2a 97 d3 bd 6e e6 c4 3d 74 6f 04 be
       -0.06276917 -0.10331567 0.096142635 -0.12933141
000310 98 8a 6a be 86 b6 8d bd f9 56 bc bd e9 67 0f be
       -0.22904432 -0.06919579 -0.09196276 -0.14004482
000320 b2 9a c1 3d 24 1c 4c bc 85 51 52 3e 2a 04 62 3d
       0.09453334 -0.012457881 0.2053891 0.055179752
000330 04 26 fa bd 68 08 48 3e ea 1f 0c 3e 88 79 cc bd
       -0.12214282 0.19534457 0.13684049 -0.09984118
000340 0b d9 bf bd ef 2e 8d be 32 39 a7 bb 7d f7 e1 3c
       -0.093675695 -0.2757487 -0.0051032538 0.027583832
000350 36 a2 92 bc 3c 2a 47 3e 82 71 ee bd 65 ba 58 bd
       -0.017899614 0.19449705 -0.11642744 -0.052912135
000360 cf c2 f9 3c 88 77 66 3d bd 09 80 3e c5 b4 7c be
       0.0304884 0.056266338 0.2500743 -0.24678333
000370 a8 e7 78 3e 54 9a 37 be 57 1c 05 3d 23 d1 17 3d
       0.2430712 -0.17929965 0.03249773 0.037064683
000380 19 af 3a 3d e2 84 77 3c 73 8d 15 be 4f 55 9b 3e
       0.045577142 0.015107365 -0.1460474 0.30338523
000390 64 5b 86 3b 8e 0e c6 bd a6 73 ae bd b5 b8 33 be
       0.00410025 -0.09670745 -0.08518152 -0.17550929
0003a0 00 b1 80 3e 36 87 81 3e 00 1b 51 bc c5 e3 5d 3e
       0.2513504 0.2529847 -0.012762785 0.21668918
0003b0 7f 9a d7 3d ca 4d 45 3d 1b 00 8e 3e e2 90 22 3e
       0.10527515 0.04816989 0.27734455 0.15875581
0003c0 2d ee 8c 3e ec 9d f5 3d 08 73 bd 3c 48 87 90 bd
       0.27525464 0.11993012 0.02312614 -0.07057053
0003d0 45 54 89 3d 18 7a 9f 3e 8d 9c ee 3c eb ac 3a be
       0.06705526 0.31147838 0.029127384 -0.18230025
0003e0 00 29 01 bd 2a 65 19 3d 42 18 1d 3d cb 78 d6 3d
       -0.03153324 0.037449993 0.038353212 0.10472258
0003f0 75 e1 dc 3d b0 dc 75 3e 7f 56 f6 bc ce 29 11 be
       0.1078519 0.24009967 -0.030070541 -0.14176103

layers.0.bias f4 [32]
000000 bf 41 89 3e 2b 33 ab bb 2f 45 52 be 34 94 04 3d
       0.26807973 -0.0052246056 -0.20534204 0.0323679
000010 f1 a3 40 3e 47 47 5d bd ae 09 61 be 05 9f 2a 3e
       0.18812539 -0.054023053 -0.21976349 0.16662224
000020 77 46 95 3e 14 ec a8 bd 33 29 f1 3d 91 d9 ae 3d
       0.29155323 -0.08248153 0.11775436 0.08537591
000030 d9 16 93 3e 78 3e a1 3e 33 46 3e be 90 97 99 3e
       0.2872837 0.31492972 -0.18581466 0.29998446
000040 f1 50 14 3e 62 d7 80 39 fe 0f b8 3d 63 ec d0 3d
       0.14484002 0.00024574535 0.08987425 0.10201337
000050 29 60 18 bd 98 29 00 3e ca 03 a2 3d 2e 4d 94 3e
       -0.03720108 0.12515867 0.07910879 0.28965133
000060 88 d9 70 3c 1a c0 c2 3e 6c 82 fc 3c 17 f4 90 bd
       0.014700301 0.38037187 0.030823909 -0.070778064
000070 8b b0 6c bd 48 96 1d 3e e0 3f 4e 3d 27 0d 75 3b
       -0.057785552 0.15389359 0.050353885 0.0037391873

layers.2.weight f4 [16, 32]
000000 89 c4 5c 3c 69 c2 61 be a5 d8 16 be 85 e2 2a be
       0.013474592 -0.22046818 -0.14731081 -0.16687973
000010 4a ef 81 be 3f f5 9c 3c a7 15 d3 3c 7a 9c 3d 3e
       -0.25377876 0.019159911 0.02576716 0.18516722
000020 ee ac c3 3c 4b a5 23 3e 2d d7 9e 3c 01 97 23 be
       0.02388617 0.15981023 0.019389713 -0.15975572
000030 b9 c8 e0 3d 7c 36 da 3a 20 c8 f4 bc c9 1c 3b be
       0.10975785 0.0016648318 -0.029880583 -0.182727
000040 02 65 ba 3d 1e 1f dd 3d ff 1e 8d 3d 12 55 d7 3d
       0.09101297 0.10796951 0.06890678 0.10514273
000050 06 b3 73 3e 67 dc a5 3c 93 8f ad bd 86 c2 bd 3d
       0.23798761 0.020246698 -0.0847465 0.09265618
000060 cf cd 23 be 58 70 6c be ba 0b 9e bd 3e 1a 83 3d
       -0.15996478 -0.2308973 -0.077170804 0.0640149
000070 6b fc 83 3d 21 ba f1 3d 9a c3 22 3d 4f ba 95 3d
       0.06444629 0.118030794 0.03973732 0.07310926
000080 2c c0 df 3c 6d 71 d9 bd 95 c8 8b 3b 36 dd 48 bd
       0.027313314 -0.106173374 0.0042658546 -0.04903909
000090 6a 9c 1c 3e 1c f1 81 be 25 f3 b9 3d ed b9 e7 bd
       0.15294042 -0.25379264 0.09079579 -0.113147594
0000a0 83 f6 31 be 28 6e 3c 3e 80 21 4f bc 74 fa d4 bd
       -0.17379193 0.18401396 -0.012642264 -0.10399333
0000b0 89 c9 e2 bc 8c 74 0a 3e 28 4b f9 3d da 19 ad bd
       -0.02768399 0.13521022 0.12172538 -0.084521964
0000c0 ff d3 e1 3d db db ea 3d f9 8f 3b 3e 85 59 01 3e
       0.11026763 0.11467715 0.1831664 0.12631805
0000d0 e1 5d 24 bd f0 75 39 3e 3e 8a 63 3e 1e bf 5f 3d
       -0.040128592 0.18111396 0.22220704 0.054625623
0000e0 ac 40 82 3e 8a a4 77 bc 08 51 27 be b9 4e d5 bd
       0.25439966 -0.015114913 -0.16339505 -0.10415406
0000f0 eb d9 3a be 58 b6 2d bc 84 65 71 3e 49 3c 31 be
       -0.18247192 -0.010602556 0.23573881 -0.17308153
000100 68 6b 61 3e a2 8c e5 3d 0e 5c cf 3d 4e b7 65 3e
       0.22013628 0.11208464 0.1012498 0.22433206
000110 c7 5e 98 3c bc 7c 99 3e 4f 04 aa bd 04 e7 d7 3d
       0.01859988 0.29977977 -0.08301603 0.105421096
000120 a1 6c 9f 3e 90 dc bf 3d 4d d0 c3 bc e6 81 18 3d
       0.31137565 0.09368241 -0.023903036 0.037233256
000130 7c c8 8b 3e f5 38 49 3e fa 3d 32 be f6 77 37 3e
       0.27301395 0.19650634 -0.17406455 0.17916855
000140 8b 4a ef 3d 87 33 a6 3c 23 3c 60 bd 67 ce 39 3e
       0.1168414 0.020288242 -0.05474485 0.18145142
000150 d0 b6 7b 3c 59 ed be 3d b0 14 28 be 83 72 f7 3d
       0.01536341 0.09322614 -0.16414142 0.12082388
000160 e2 17 56 bd f4 db 05 3e a6 88 e7 3d 47 b1 7c be
       -0.05226887 0.13072187 0.113053605 -0.24677001
000170 c9 3b 44 bd 44 76 1b 3d 31 79 59 be bd b8 32 be
       -0.047908578 0.037954584 -0.21237637 -0.17453285
000180 da 97 29 3d 9e 7e 5c be 3c ea 1f be f8 da f8 3c
       0.041404583 -0.21532676 -0.15616697 0.03037785
000190 fd 7e 2b 3e 26 2a 84 ba a3 1f 15 bd 91 5a c6 bd
       0.16747661 -0.0010083362 -0.036407124 -0.09685243
0001a0 79 03 c7 bd ef 5a c3 bd f9 43 d9 bc aa 0d 43 be
       -0.09717459 -0.095388286 -0.02652167 -0.19048181
0001b0 78 54 1a be 73 73 2b 3d 58 df 46 3c 28 4c 12 3d
       -0.15071285 0.041858148 0.01213821 0.03571716
0001c0 dc e5 14 3d 6b e5 ed 3d 9f 0d 8d 3e ea b5 3a be
       0.036352023 0.11616024 0.27549455 -0.18233457
0001d0 ee c9 e9 bd 0f 9e 50 3e 7e 36 d2 3b df 02 60 be
       -0.11415468 0.20372795 0.0064151874 -0.21876095
0001e0 b0 4b 83 3d 52 94 58 3e 94 23 aa bd 79 0e 27 3d
       0.064109206 0.2115033 -0.08307567 0.040785287
0001f0 2d 41 13 be 29 14 d7 3d 7d 27 32 3e 9a dc 0d 3e
       -0.14380331 0.10501892 0.17397876 0.13853684
000200 43 7f 27 be d9 ce 38 be a9 c9 16 be f5 5f df bd
       -0.1635714 -0.18047656 -0.14725365 -0.10906974
000210 18 02 17 3e 60 f2 5c be a0 81 10 3e 60 16 3b 3d
       0.14746892 -0.21576834 0.14111948 0.045675635
000220 8f b6 36 be b2 a2 16 bc 75 23 3e be 40 12 22 3e
       -0.17843078 -0.009194063 -0.18568213 0.15827274
000230 b2 ad 19 3e 39 fc 4e 3e 11 51 b3 bc 89 cd 74 be
       0.15007666 0.20213403 -0.021889241 -0.2390653
000240 56 f1 18 bd 95 e8 3c 3e c4 59 06 3e 56 eb c3 3d
       -0.03733953 0.18448098 0.1312018 0.09566371
000250 51 6c 3b bd 4c 00 b2 38 75 2e e8 3c 3b d0 ba bc
       -0.045757595 8.487757e-05 0.028342465 -0.02280437
000260 f6 91 13 3e 47 84 11 3e da cb f6 bc e2 86 1c 3e
       0.14411148 0.14210616 -0.0301265 0.15285829
000270 07 39 3a be fa fd 24 3d ef 17 43 3d 8f 8c 5f 3e
       -0.18185817 0.040281273 0.047630247 0.21830963
000280 3c d7 91 3b 82 5b 05 3d 6a 74 dd bd 7e 3b 13 be
       0.0044507068 0.03255797 -0.1081322 -0.14378163
000290 c2 71 a6 bc 58 31 e8 bd 63 42 be 3d 18 64 1b bd
       -0.020317916 -0.113375366 0.09290006 -0.037937254
0002a0 b5 7d e8 3d 5a ae 9f 3d ac 21 c4 bd 4b 93 a6 3c
       0.11352102 0.07796927 -0.09576735 0.020333907
0002b0 b2 3a b8 3d e0 d6 6c bd be 23 38 bd 86 2d a7 bd
       0.0899557 -0.05782211 -0.04495596 -0.0816298
0002c0 28 c8 74 3d cf 29 0e bd 66 00 58 bd cb 67 8e bc
       0.059761196 -0.03470784 -0.052734755 -0.017383477
0002d0 38 67 15 be bc ea bf bd e4 80 76 bd 8e 4d 2e be
       -0.14590156 -0.09370944 -0.060181513 -0.17021772
0002e0 35 13 f5 bd de 16 43 bd 8f fe d6 3b 67 a5 cf bd
       -0.11966554 -0.04762923 0.0065611075 -0.1013897
0002f0 a2 56 14 be 2d 57 3c bc 87 e3 79 3d 64 05 33 be
       -0.14486173 -0.011495394 0.061008003 -0.17482525
000300 eb 91 42 3e e0 14 0b 3e 7a 27 63 3e 01 a6 b2 3d
       0.19000976 0.13582182 0.22183028 0.08723069
000310 b1 60 e6 bd a1 61 e8 3c 91 1b 07 be 38 cb 2e 3e
       -0.11248911 0.028366866 -0.1319411 0.1706971
000320 14 ec 9f 3d ce f0 be bd 94 24 7a 3e 32 c8 26 3e
       0.078087 -0.093232736 0.24428016 0.16287306
000330 61 bf ea 3d 47 36 d0 3d 20 9b fa bd 84 b1 e6 3d
       0.11462284 0.101666026 -0.12236619 0.11264327
000340 45 f1 4b 3e 97 c3 9f bd aa 16 ec 3d 42 62 44 3c
       0.19916256 -0.07800978 0.1152776 0.011986317
000350 b6 30 f9 3d f6 04 9c bd 28 d5 f7 bd ca 39 6a 3e
       0.12167494 -0.07618134 -0.12101203 0.22873607
000360 9c 09 ef ba 08 15 3d 3d a6 b1 77 3e d3 5f 8f bd
       -0.0018237117 0.046162635 0.24188861 -0.07000699
000370 e6 1b 11 3e f2 53 48 bd 08 b3 49 be 0c 27 f0 bd
       0.14170799 -0.04890818 -0.19697201 -0.117261976
000380 0f 29 b2 3d fc 06 1b 3e 8b 09 9c 3e c0 37 00 3e
       0.086992376 0.15139383 0.3047603 0.12521267
000390 1b 2a a4 bd ad b5 c9 3e 41 72 55 be 91 83 c7 3d
       -0.080158435 0.3939642 -0.20844366 0.09741891
0003a0 91 af a7 3e ee bb 4d 3d 09 fa 0b 3d 7c e2 2b 3e
       0.32751134 0.05022805 0.034174 0.16785616
0003b0 8e 52 4e 3e ad 7d 3b 3e ca a6 a0 bc 84 72 32 3e
       0.2014868 0.1830966 -0.019610781 0.17426497
0003c0 5f 3c a4 bc f3 a4 6c bd e4 5b 05 be f5 04 51 3e
       -0.020048318 -0.057774495 -0.13023335 0.20412047
0003d0 47 2e 14 bd 8d a5 35 bd 50 74 b9 bd 2a d6 ac 3d
       -0.036176946 -0.044347335 -0.09055388 0.08439286
0003e0 62 5f 58 be 2d c0 f6 3d 7e de df 3d 94 66 12 be
       -0.21130136 0.12048373 0.10931109 -0.14296943
0003f0 de 52 3c 3e 9e 68 ae 3c 32 e4 ff bd 3c 5f 70 be
       0.18390986 0.02129012 -0.12494697 -0.23473829

layers.2.bias f4 [16]
000000 d4 50 93 bd d2 c6 ac bd 47 38 46 3e 6a 58 1f 3e
       -0.07193151 -0.084363595 0.19357406 0.15561071
000010 ad 94 09 3e 1f aa e4 bd 61 35 01 3c b3 a5 37 3e
       0.13435622 -0.111652605 0.007886262 0.17934303
000020 b6 c1 0b 3e b7 1d 06 bd 3b 41 53 3d 86 36 2e 3d
       0.13648114 -0.032743182 0.05157588 0.042532466
000030 1d c2 0b 3e 48 d8 07 3e 90 5a 74 3e d2 0e dc 3d
       0.13648267 0.13266098 0.23862672 0.10745014

layers.4.weight f4 [1, 16]
000000 63 0a c5 3e f0 d4 97 be 78 db c7 3e 59 14 ad be
       0.38484487 -0.29654646 0.3903463 -0.33804587
000010 1e 48 ab be 2d e6 32 ba 64 a2 ab 3e 5e db 44 3e
       -0.3345346 -0.000682446 0.33522332 0.19224307
000020 2c 82 c3 be fe e0 cf be c5 30 56 3e 28 47 2b 3e
       -0.3818525 -0.40601343 0.20917042 0.16726363
000030 1c 40 1e be e2 c7 29 3e 24 b3 88 3e 97 50 4a be
       -0.15454143 0.16580155 0.26699173 -0.19757305
